…
resume                    ./params/swin_tiny_iterative_box_refinement_COCO.pth
start_epoch               0
eval                      False
eval_extra                False
use_nms                   True
num_workers               2
local_rank                -1
distributed               False
------------------------  ----------------------------------------------------
2025-02-13 13:48:04.424 | INFO     | __main__:main:191 - 
PA2LG(
  (transformer): DeformableTransformer(
    (encoder): DeformableTransformerEncoder(
      (layers): ModuleList(
        (0-5): 6 x DeformableTransformerEncoderLayer(
          (self_attn): MSDeformAttn(
            (sampling_offsets): Linear(in_features=256, out_features=256, bias=True)
            (attention_weights): Linear(in_features=256, out_features=128, bias=True)
            (value_proj): Linear(in_features=256, out_features=256, bias=True)
            (output_proj): Linear(in_features=256, out_features=256, bias=True)
          )
          (dropout1): Dropout(p=0.1, inplace=False)
          (norm1): LayerNorm((256,), eps=1e-05, elementwise_affine=True)
          (linear1): Linear(in_features=256, out_features=1024, bias=True)
          (dropout2): Dropout(p=0.1, inplace=False)
          (linear2): Linear(in_features=1024, out_features=256, bias=True)
          (dropout3): Dropout(p=0.1, inplace=False)
          (norm2): LayerNorm((256,), eps=1e-05, elementwise_affine=True)
        )
      )
    )
    (decoder): DeformableTransformerDecoder(
      (layers): ModuleList(
        (0-5): 6 x DeformableTransformerDecoderLayer(
          (cross_attn): MSDeformAttn(
            (sampling_offsets): Linear(in_features=256, out_features=256, bias=True)
            (attention_weights): Linear(in_features=256, out_features=128, bias=True)
            (value_proj): Linear(in_features=256, out_features=256, bias=True)
            (output_proj): Linear(in_features=256, out_features=256, bias=True)
          )
          (dropout1): Dropout(p=0.1, inplace=False)
          (norm1): LayerNorm((256,), eps=1e-05, elementwise_affine=True)
          (self_attn): MultiheadAttention(
            (out_proj): NonDynamicallyQuantizableLinear(in_features=256, out_features=256, bias=True)
          )
          (dropout2): Dropout(p=0.1, inplace=False)
          (norm2): LayerNorm((256,), eps=1e-05, elementwise_affine=True)
          (linear1): Linear(in_features=256, out_features=1024, bias=True)
          (dropout3): Dropout(p=0.1, inplace=False)
          (linear2): Linear(in_features=1024, out_features=256, bias=True)
          (dropout4): Dropout(p=0.1, inplace=False)
          (norm3): LayerNorm((256,), eps=1e-05, elementwise_affine=True)
          (linear_pro): Linear(in_features=256, out_features=128, bias=True)
          (linear_lay): Linear(in_features=256, out_features=128, bias=True)
        )
      )
      (rel_layers): ModuleList(
        (0-5): 6 x DeformableTransformerDecoderLayer(
          (cross_attn): MSDeformAttn(
            (sampling_offsets): Linear(in_features=256, out_features=256, bias=True)
            (attention_weights): Linear(in_features=256, out_features=128, bias=True)
            (value_proj): Linear(in_features=256, out_features=256, bias=True)
            (output_proj): Linear(in_features=256, out_features=256, bias=True)
          )
          (dropout1): Dropout(p=0.1, inplace=False)
          (norm1): LayerNorm((256,), eps=1e-05, elementwise_affine=True)
          (self_attn): MultiheadAttention(
            (out_proj): NonDynamicallyQuantizableLinear(in_features=256, out_features=256, bias=True)
          )
          (dropout2): Dropout(p=0.1, inplace=False)
          (norm2): LayerNorm((256,), eps=1e-05, elementwise_affine=True)
          (linear1): Linear(in_features=256, out_features=1024, bias=True)
          (dropout3): Dropout(p=0.1, inplace=False)
          (linear2): Linear(in_features=1024, out_features=256, bias=True)
          (dropout4): Dropout(p=0.1, inplace=False)
          (norm3): LayerNorm((256,), eps=1e-05, elementwise_affine=True)
          (linear_pro): Linear(in_features=256, out_features=128, bias=True)
          (linear_lay): Linear(in_features=256, out_features=128, bias=True)
        )
      )
      (sub_embed): ModuleList(
        (0-5): 6 x MLP(
          (layers): ModuleList(
            (0-1): 2 x Linear(in_features=256, out_features=256, bias=True)
            (2): Linear(in_features=256, out_features=4, bias=True)
          )
        )
      )
      (obj_embed): ModuleList(
        (0-5): 6 x MLP(
          (layers): ModuleList(
            (0-1): 2 x Linear(in_features=256, out_features=256, bias=True)
            (2): Linear(in_features=256, out_features=4, bias=True)
          )
        )
      )
    )
    (reference_points): Linear(in_features=256, out_features=2, bias=True)
  )
  (class_embed): ModuleList(
    (0-5): 6 x Linear(in_features=256, out_features=80, bias=True)
  )
  (verb_class_embed): ModuleList(
    (0-5): 6 x Linear(in_features=256, out_features=117, bias=True)
  )
  (sub_embed): ModuleList(
    (0-5): 6 x MLP(
      (layers): ModuleList(
        (0-1): 2 x Linear(in_features=256, out_features=256, bias=True)
        (2): Linear(in_features=256, out_features=4, bias=True)
      )
    )
  )
  (obj_embed): ModuleList(
    (0-5): 6 x MLP(
      (layers): ModuleList(
        (0-1): 2 x Linear(in_features=256, out_features=256, bias=True)
        (2): Linear(in_features=256, out_features=4, bias=True)
      )
    )
  )
  (spatial_embed): ModuleList(
    (0-5): 6 x Linear(in_features=256, out_features=117, bias=True)
  )
  (query_embed): Embedding(128, 512)
  (input_proj): ModuleList(
    (0): Sequential(
      (0): Conv2d(192, 256, kernel_size=(1, 1), stride=(1, 1))
      (1): GroupNorm(32, 256, eps=1e-05, affine=True)
    )
    (1): Sequential(
      (0): Conv2d(384, 256, kernel_size=(1, 1), stride=(1, 1))
      (1): GroupNorm(32, 256, eps=1e-05, affine=True)
    )
    (2): Sequential(
      (0): Conv2d(768, 256, kernel_size=(1, 1), stride=(1, 1))
      (1): GroupNorm(32, 256, eps=1e-05, affine=True)
    )
    (3): Sequential(
      (0): Conv2d(768, 256, kernel_size=(3, 3), stride=(2, 2), padding=(1, 1))
      (1): GroupNorm(32, 256, eps=1e-05, affine=True)
    )
  )
  (backbone): Joiner(
    (0): Backbone(
      (body): SwinTransformer(
        (patch_embed): PatchEmbed(
          (proj): Conv2d(3, 96, kernel_size=(4, 4), stride=(4, 4))
          (norm): LayerNorm((96,), eps=1e-05, elementwise_affine=True)
        )
        (pos_drop): Dropout(p=0.0, inplace=False)
        (layers): ModuleList(
          (0): BasicLayer(
            (blocks): ModuleList(
              (0): SwinTransformerBlock(
                (norm1): LayerNorm((96,), eps=1e-05, elementwise_affine=True)
                (attn): WindowAttention(
                  (qkv): Linear(in_features=96, out_features=288, bias=True)
                  (attn_drop): Dropout(p=0.0, inplace=False)
                  (proj): Linear(in_features=96, out_features=96, bias=True)
                  (proj_drop): Dropout(p=0.0, inplace=False)
                  (softmax): Softmax(dim=-1)
                )
                (drop_path): Identity()
                (norm2): LayerNorm((96,), eps=1e-05, elementwise_affine=True)
                (mlp): Mlp(
                  (fc1): Linear(in_features=96, out_features=384, bias=True)
                  (act): GELU(approximate='none')
                  (fc2): Linear(in_features=384, out_features=96, bias=True)
                  (drop): Dropout(p=0.0, inplace=False)
                )
              )
              (1): SwinTransformerBlock(
                (norm1): LayerNorm((96,), eps=1e-05, elementwise_affine=True)
                (attn): WindowAttention(
                  (qkv): Linear(in_features=96, out_features=288, bias=True)
                  (attn_drop): Dropout(p=0.0, inplace=False)
                  (proj): Linear(in_features=96, out_features=96, bias=True)
                  (proj_drop): Dropout(p=0.0, inplace=False)
                  (softmax): Softmax(dim=-1)
                )
                (drop_path): DropPath(drop_prob=0.018)
                (norm2): LayerNorm((96,), eps=1e-05, elementwise_affine=True)
                (mlp): Mlp(
                  (fc1): Linear(in_features=96, out_features=384, bias=True)
                  (act): GELU(approximate='none')
                  (fc2): Linear(in_features=384, out_features=96, bias=True)
                  (drop): Dropout(p=0.0, inplace=False)
                )
              )
            )
            (downsample): PatchMerging(
              (reduction): Linear(in_features=384, out_features=192, bias=False)
              (norm): LayerNorm((384,), eps=1e-05, elementwise_affine=True)
            )
          )
          (1): BasicLayer(
            (blocks): ModuleList(
              (0): SwinTransformerBlock(
                (norm1): LayerNorm((192,), eps=1e-05, elementwise_affine=True)
                (attn): WindowAttention(
                  (qkv): Linear(in_features=192, out_features=576, bias=True)
                  (attn_drop): Dropout(p=0.0, inplace=False)
                  (proj): Linear(in_features=192, out_features=192, bias=True)
                  (proj_drop): Dropout(p=0.0, inplace=False)
                  (softmax): Softmax(dim=-1)
                )
                (drop_path): DropPath(drop_prob=0.036)
                (norm2): LayerNorm((192,), eps=1e-05, elementwise_affine=True)
                (mlp): Mlp(
                  (fc1): Linear(in_features=192, out_features=768, bias=True)
                  (act): GELU(approximate='none')
                  (fc2): Linear(in_features=768, out_features=192, bias=True)
                  (drop): Dropout(p=0.0, inplace=False)
                )
              )
              (1): SwinTransformerBlock(
                (norm1): LayerNorm((192,), eps=1e-05, elementwise_affine=True)
                (attn): WindowAttention(
                  (qkv): Linear(in_features=192, out_features=576, bias=True)
                  (attn_drop): Dropout(p=0.0, inplace=False)
                  (proj): Linear(in_features=192, out_features=192, bias=True)
                  (proj_drop): Dropout(p=0.0, inplace=False)
                  (softmax): Softmax(dim=-1)
                )
                (drop_path): DropPath(drop_prob=0.055)
                (norm2): LayerNorm((192,), eps=1e-05, elementwise_affine=True)
                (mlp): Mlp(
                  (fc1): Linear(in_features=192, out_features=768, bias=True)
                  (act): GELU(approximate='none')
                  (fc2): Linear(in_features=768, out_features=192, bias=True)
                  (drop): Dropout(p=0.0, inplace=False)
                )
              )
            )
            (downsample): PatchMerging(
              (reduction): Linear(in_features=768, out_features=384, bias=False)
              (norm): LayerNorm((768,), eps=1e-05, elementwise_affine=True)
            )
          )
          (2): BasicLayer(
            (blocks): ModuleList(
              (0): SwinTransformerBlock(
                (norm1): LayerNorm((384,), eps=1e-05, elementwise_affine=True)
                (attn): WindowAttention(
                  (qkv): Linear(in_features=384, out_features=1152, bias=True)
                  (attn_drop): Dropout(p=0.0, inplace=False)
                  (proj): Linear(in_features=384, out_features=384, bias=True)
                  (proj_drop): Dropout(p=0.0, inplace=False)
                  (softmax): Softmax(dim=-1)
                )
                (drop_path): DropPath(drop_prob=0.073)
                (norm2): LayerNorm((384,), eps=1e-05, elementwise_affine=True)
                (mlp): Mlp(
                  (fc1): Linear(in_features=384, out_features=1536, bias=True)
                  (act): GELU(approximate='none')
                  (fc2): Linear(in_features=1536, out_features=384, bias=True)
                  (drop): Dropout(p=0.0, inplace=False)
                )
              )
              (1): SwinTransformerBlock(
                (norm1): LayerNorm((384,), eps=1e-05, elementwise_affine=True)
                (attn): WindowAttention(
                  (qkv): Linear(in_features=384, out_features=1152, bias=True)
                  (attn_drop): Dropout(p=0.0, inplace=False)
                  (proj): Linear(in_features=384, out_features=384, bias=True)
                  (proj_drop): Dropout(p=0.0, inplace=False)
                  (softmax): Softmax(dim=-1)
                )
                (drop_path): DropPath(drop_prob=0.091)
                (norm2): LayerNorm((384,), eps=1e-05, elementwise_affine=True)
                (mlp): Mlp(
                  (fc1): Linear(in_features=384, out_features=1536, bias=True)
                  (act): GELU(approximate='none')
                  (fc2): Linear(in_features=1536, out_features=384, bias=True)
                  (drop): Dropout(p=0.0, inplace=False)
                )
              )
              (2): SwinTransformerBlock(
                (norm1): LayerNorm((384,), eps=1e-05, elementwise_affine=True)
                (attn): WindowAttention(
                  (qkv): Linear(in_features=384, out_features=1152, bias=True)
                  (attn_drop): Dropout(p=0.0, inplace=False)
                  (proj): Linear(in_features=384, out_features=384, bias=True)
                  (proj_drop): Dropout(p=0.0, inplace=False)
                  (softmax): Softmax(dim=-1)
                )
                (drop_path): DropPath(drop_prob=0.109)
                (norm2): LayerNorm((384,), eps=1e-05, elementwise_affine=True)
                (mlp): Mlp(
                  (fc1): Linear(in_features=384, out_features=1536, bias=True)
                  (act): GELU(approximate='none')
                  (fc2): Linear(in_features=1536, out_features=384, bias=True)
                  (drop): Dropout(p=0.0, inplace=False)
                )
              )
              (3): SwinTransformerBlock(
                (norm1): LayerNorm((384,), eps=1e-05, elementwise_affine=True)
                (attn): WindowAttention(
                  (qkv): Linear(in_features=384, out_features=1152, bias=True)
                  (attn_drop): Dropout(p=0.0, inplace=False)
                  (proj): Linear(in_features=384, out_features=384, bias=True)
                  (proj_drop): Dropout(p=0.0, inplace=False)
                  (softmax): Softmax(dim=-1)
                )
                (drop_path): DropPath(drop_prob=0.127)
                (norm2): LayerNorm((384,), eps=1e-05, elementwise_affine=True)
                (mlp): Mlp(
                  (fc1): Linear(in_features=384, out_features=1536, bias=True)
                  (act): GELU(approximate='none')
                  (fc2): Linear(in_features=1536, out_features=384, bias=True)
                  (drop): Dropout(p=0.0, inplace=False)
                )
              )
              (4): SwinTransformerBlock(
                (norm1): LayerNorm((384,), eps=1e-05, elementwise_affine=True)
                (attn): WindowAttention(
                  (qkv): Linear(in_features=384, out_features=1152, bias=True)
                  (attn_drop): Dropout(p=0.0, inplace=False)
                  (proj): Linear(in_features=384, out_features=384, bias=True)
                  (proj_drop): Dropout(p=0.0, inplace=False)
                  (softmax): Softmax(dim=-1)
                )
                (drop_path): DropPath(drop_prob=0.145)
                (norm2): LayerNorm((384,), eps=1e-05, elementwise_affine=True)
                (mlp): Mlp(
                  (fc1): Linear(in_features=384, out_features=1536, bias=True)
                  (act): GELU(approximate='none')
                  (fc2): Linear(in_features=1536, out_features=384, bias=True)
                  (drop): Dropout(p=0.0, inplace=False)
                )
              )
              (5): SwinTransformerBlock(
                (norm1): LayerNorm((384,), eps=1e-05, elementwise_affine=True)
                (attn): WindowAttention(
                  (qkv): Linear(in_features=384, out_features=1152, bias=True)
                  (attn_drop): Dropout(p=0.0, inplace=False)
                  (proj): Linear(in_features=384, out_features=384, bias=True)
                  (proj_drop): Dropout(p=0.0, inplace=False)
                  (softmax): Softmax(dim=-1)
                )
                (drop_path): DropPath(drop_prob=0.164)
                (norm2): LayerNorm((384,), eps=1e-05, elementwise_affine=True)
                (mlp): Mlp(
                  (fc1): Linear(in_features=384, out_features=1536, bias=True)
                  (act): GELU(approximate='none')
                  (fc2): Linear(in_features=1536, out_features=384, bias=True)
                  (drop): Dropout(p=0.0, inplace=False)
                )
              )
            )
            (downsample): PatchMerging(
              (reduction): Linear(in_features=1536, out_features=768, bias=False)
              (norm): LayerNorm((1536,), eps=1e-05, elementwise_affine=True)
            )
          )
          (3): BasicLayer(
            (blocks): ModuleList(
              (0): SwinTransformerBlock(
                (norm1): LayerNorm((768,), eps=1e-05, elementwise_affine=True)
                (attn): WindowAttention(
                  (qkv): Linear(in_features=768, out_features=2304, bias=True)
                  (attn_drop): Dropout(p=0.0, inplace=False)
                  (proj): Linear(in_features=768, out_features=768, bias=True)
                  (proj_drop): Dropout(p=0.0, inplace=False)
                  (softmax): Softmax(dim=-1)
                )
                (drop_path): DropPath(drop_prob=0.182)
                (norm2): LayerNorm((768,), eps=1e-05, elementwise_affine=True)
                (mlp): Mlp(
                  (fc1): Linear(in_features=768, out_features=3072, bias=True)
                  (act): GELU(approximate='none')
                  (fc2): Linear(in_features=3072, out_features=768, bias=True)
                  (drop): Dropout(p=0.0, inplace=False)
                )
              )
              (1): SwinTransformerBlock(
                (norm1): LayerNorm((768,), eps=1e-05, elementwise_affine=True)
                (attn): WindowAttention(
                  (qkv): Linear(in_features=768, out_features=2304, bias=True)
                  (attn_drop): Dropout(p=0.0, inplace=False)
                  (proj): Linear(in_features=768, out_features=768, bias=True)
                  (proj_drop): Dropout(p=0.0, inplace=False)
                  (softmax): Softmax(dim=-1)
                )
                (drop_path): DropPath(drop_prob=0.200)
                (norm2): LayerNorm((768,), eps=1e-05, elementwise_affine=True)
                (mlp): Mlp(
                  (fc1): Linear(in_features=768, out_features=3072, bias=True)
                  (act): GELU(approximate='none')
                  (fc2): Linear(in_features=3072, out_features=768, bias=True)
                  (drop): Dropout(p=0.0, inplace=False)
                )
              )
            )
          )
        )
        (norm1): LayerNorm((192,), eps=1e-05, elementwise_affine=True)
        (norm2): LayerNorm((384,), eps=1e-05, elementwise_affine=True)
        (norm3): LayerNorm((768,), eps=1e-05, elementwise_affine=True)
      )
    )
    (1): PositionEmbeddingSine()
  )
)
2025-02-13 13:48:17.980 | ERROR    | __main__:<module>:328 - An error has been caught in function '<module>', process 'MainProcess' (17044), thread 'MainThread' (16596):
Traceback (most recent call last):

> File "main.py", line 328, in <module>
    main(args)
    │    └ Namespace(aux_loss=True, backbone='swin_tiny', batch_size=2, bbox_loss_coef=2.5, clip_max_norm=0.1, coco_panoptic_path=None, ...
…
resume                    ./params/swin_tiny_iterative_box_refinement_COCO.pth
start_epoch               0
eval                      False
eval_extra                False
use_nms                   True
num_workers               2
local_rank                -1
distributed               False
------------------------  ----------------------------------------------------
2025-02-13 13:54:08.536 | INFO     | __main__:main:191 - 
PA2LG(
  (transformer): DeformableTransformer(
    (encoder): DeformableTransformerEncoder(
      (layers): ModuleList(
        (0-5): 6 x DeformableTransformerEncoderLayer(
          (self_attn): MSDeformAttn(
            (sampling_offsets): Linear(in_features=256, out_features=256, bias=True)
            (attention_weights): Linear(in_features=256, out_features=128, bias=True)
            (value_proj): Linear(in_features=256, out_features=256, bias=True)
            (output_proj): Linear(in_features=256, out_features=256, bias=True)
          )
          (dropout1): Dropout(p=0.1, inplace=False)
          (norm1): LayerNorm((256,), eps=1e-05, elementwise_affine=True)
          (linear1): Linear(in_features=256, out_features=1024, bias=True)
          (dropout2): Dropout(p=0.1, inplace=False)
          (linear2): Linear(in_features=1024, out_features=256, bias=True)
          (dropout3): Dropout(p=0.1, inplace=False)
          (norm2): LayerNorm((256,), eps=1e-05, elementwise_affine=True)
        )
      )
    )
    (decoder): DeformableTransformerDecoder(
      (layers): ModuleList(
        (0-5): 6 x DeformableTransformerDecoderLayer(
          (cross_attn): MSDeformAttn(
            (sampling_offsets): Linear(in_features=256, out_features=256, bias=True)
            (attention_weights): Linear(in_features=256, out_features=128, bias=True)
            (value_proj): Linear(in_features=256, out_features=256, bias=True)
            (output_proj): Linear(in_features=256, out_features=256, bias=True)
          )
          (dropout1): Dropout(p=0.1, inplace=False)
          (norm1): LayerNorm((256,), eps=1e-05, elementwise_affine=True)
          (self_attn): MultiheadAttention(
            (out_proj): NonDynamicallyQuantizableLinear(in_features=256, out_features=256, bias=True)
          )
          (dropout2): Dropout(p=0.1, inplace=False)
          (norm2): LayerNorm((256,), eps=1e-05, elementwise_affine=True)
          (linear1): Linear(in_features=256, out_features=1024, bias=True)
          (dropout3): Dropout(p=0.1, inplace=False)
          (linear2): Linear(in_features=1024, out_features=256, bias=True)
          (dropout4): Dropout(p=0.1, inplace=False)
          (norm3): LayerNorm((256,), eps=1e-05, elementwise_affine=True)
          (linear_pro): Linear(in_features=256, out_features=128, bias=True)
          (linear_lay): Linear(in_features=256, out_features=128, bias=True)
        )
      )
      (rel_layers): ModuleList(
        (0-5): 6 x RelDeformableTransformerDecoderLayer(
          (cross_attn): MSDeformAttn(
            (sampling_offsets): Linear(in_features=256, out_features=256, bias=True)
            (attention_weights): Linear(in_features=256, out_features=128, bias=True)
            (value_proj): Linear(in_features=256, out_features=256, bias=True)
            (output_proj): Linear(in_features=256, out_features=256, bias=True)
          )
          (dropout1): Dropout(p=0.1, inplace=False)
          (norm1): LayerNorm((256,), eps=1e-05, elementwise_affine=True)
          (self_attn): MultiheadAttention(
            (out_proj): NonDynamicallyQuantizableLinear(in_features=256, out_features=256, bias=True)
          )
          (dropout2): Dropout(p=0.1, inplace=False)
          (norm2): LayerNorm((256,), eps=1e-05, elementwise_affine=True)
          (linear1): Linear(in_features=256, out_features=1024, bias=True)
          (dropout3): Dropout(p=0.1, inplace=False)
          (linear2): Linear(in_features=1024, out_features=256, bias=True)
          (dropout4): Dropout(p=0.1, inplace=False)
          (norm3): LayerNorm((256,), eps=1e-05, elementwise_affine=True)
          (linear3): Linear(in_features=36, out_features=256, bias=True)
          (norm4): LayerNorm((256,), eps=1e-05, elementwise_affine=True)
          (linear4): Linear(in_features=256, out_features=1024, bias=True)
          (dropout5): Dropout(p=0.1, inplace=False)
          (linear5): Linear(in_features=1024, out_features=256, bias=True)
          (dropout6): Dropout(p=0.1, inplace=False)
          (norm5): LayerNorm((256,), eps=1e-05, elementwise_affine=True)
          (linear_pro): Linear(in_features=256, out_features=128, bias=True)
          (linear_lay): Linear(in_features=256, out_features=128, bias=True)
        )
      )
      (sub_embed): ModuleList(
        (0-5): 6 x MLP(
          (layers): ModuleList(
            (0-1): 2 x Linear(in_features=256, out_features=256, bias=True)
            (2): Linear(in_features=256, out_features=4, bias=True)
          )
        )
      )
      (obj_embed): ModuleList(
        (0-5): 6 x MLP(
          (layers): ModuleList(
            (0-1): 2 x Linear(in_features=256, out_features=256, bias=True)
            (2): Linear(in_features=256, out_features=4, bias=True)
          )
        )
      )
    )
    (reference_points): Linear(in_features=256, out_features=2, bias=True)
  )
  (class_embed): ModuleList(
    (0-5): 6 x Linear(in_features=256, out_features=80, bias=True)
  )
  (verb_class_embed): ModuleList(
    (0-5): 6 x Linear(in_features=256, out_features=117, bias=True)
  )
  (sub_embed): ModuleList(
    (0-5): 6 x MLP(
      (layers): ModuleList(
        (0-1): 2 x Linear(in_features=256, out_features=256, bias=True)
        (2): Linear(in_features=256, out_features=4, bias=True)
      )
    )
  )
  (obj_embed): ModuleList(
    (0-5): 6 x MLP(
      (layers): ModuleList(
        (0-1): 2 x Linear(in_features=256, out_features=256, bias=True)
        (2): Linear(in_features=256, out_features=4, bias=True)
      )
    )
  )
  (spatial_embed): ModuleList(
    (0-5): 6 x Linear(in_features=256, out_features=117, bias=True)
  )
  (query_embed): Embedding(128, 512)
  (input_proj): ModuleList(
    (0): Sequential(
      (0): Conv2d(192, 256, kernel_size=(1, 1), stride=(1, 1))
      (1): GroupNorm(32, 256, eps=1e-05, affine=True)
    )
    (1): Sequential(
      (0): Conv2d(384, 256, kernel_size=(1, 1), stride=(1, 1))
      (1): GroupNorm(32, 256, eps=1e-05, affine=True)
    )
    (2): Sequential(
      (0): Conv2d(768, 256, kernel_size=(1, 1), stride=(1, 1))
      (1): GroupNorm(32, 256, eps=1e-05, affine=True)
    )
    (3): Sequential(
      (0): Conv2d(768, 256, kernel_size=(3, 3), stride=(2, 2), padding=(1, 1))
      (1): GroupNorm(32, 256, eps=1e-05, affine=True)
    )
  )
  (backbone): Joiner(
    (0): Backbone(
      (body): SwinTransformer(
        (patch_embed): PatchEmbed(
          (proj): Conv2d(3, 96, kernel_size=(4, 4), stride=(4, 4))
          (norm): LayerNorm((96,), eps=1e-05, elementwise_affine=True)
        )
        (pos_drop): Dropout(p=0.0, inplace=False)
        (layers): ModuleList(
          (0): BasicLayer(
            (blocks): ModuleList(
              (0): SwinTransformerBlock(
                (norm1): LayerNorm((96,), eps=1e-05, elementwise_affine=True)
                (attn): WindowAttention(
                  (qkv): Linear(in_features=96, out_features=288, bias=True)
                  (attn_drop): Dropout(p=0.0, inplace=False)
                  (proj): Linear(in_features=96, out_features=96, bias=True)
                  (proj_drop): Dropout(p=0.0, inplace=False)
                  (softmax): Softmax(dim=-1)
                )
                (drop_path): Identity()
                (norm2): LayerNorm((96,), eps=1e-05, elementwise_affine=True)
                (mlp): Mlp(
                  (fc1): Linear(in_features=96, out_features=384, bias=True)
                  (act): GELU(approximate='none')
                  (fc2): Linear(in_features=384, out_features=96, bias=True)
                  (drop): Dropout(p=0.0, inplace=False)
                )
              )
              (1): SwinTransformerBlock(
                (norm1): LayerNorm((96,), eps=1e-05, elementwise_affine=True)
                (attn): WindowAttention(
                  (qkv): Linear(in_features=96, out_features=288, bias=True)
                  (attn_drop): Dropout(p=0.0, inplace=False)
                  (proj): Linear(in_features=96, out_features=96, bias=True)
                  (proj_drop): Dropout(p=0.0, inplace=False)
                  (softmax): Softmax(dim=-1)
                )
                (drop_path): DropPath(drop_prob=0.018)
                (norm2): LayerNorm((96,), eps=1e-05, elementwise_affine=True)
                (mlp): Mlp(
                  (fc1): Linear(in_features=96, out_features=384, bias=True)
                  (act): GELU(approximate='none')
                  (fc2): Linear(in_features=384, out_features=96, bias=True)
                  (drop): Dropout(p=0.0, inplace=False)
                )
              )
            )
            (downsample): PatchMerging(
              (reduction): Linear(in_features=384, out_features=192, bias=False)
              (norm): LayerNorm((384,), eps=1e-05, elementwise_affine=True)
            )
          )
          (1): BasicLayer(
            (blocks): ModuleList(
              (0): SwinTransformerBlock(
                (norm1): LayerNorm((192,), eps=1e-05, elementwise_affine=True)
                (attn): WindowAttention(
                  (qkv): Linear(in_features=192, out_features=576, bias=True)
                  (attn_drop): Dropout(p=0.0, inplace=False)
                  (proj): Linear(in_features=192, out_features=192, bias=True)
                  (proj_drop): Dropout(p=0.0, inplace=False)
                  (softmax): Softmax(dim=-1)
                )
                (drop_path): DropPath(drop_prob=0.036)
                (norm2): LayerNorm((192,), eps=1e-05, elementwise_affine=True)
                (mlp): Mlp(
                  (fc1): Linear(in_features=192, out_features=768, bias=True)
                  (act): GELU(approximate='none')
                  (fc2): Linear(in_features=768, out_features=192, bias=True)
                  (drop): Dropout(p=0.0, inplace=False)
                )
              )
              (1): SwinTransformerBlock(
                (norm1): LayerNorm((192,), eps=1e-05, elementwise_affine=True)
                (attn): WindowAttention(
                  (qkv): Linear(in_features=192, out_features=576, bias=True)
                  (attn_drop): Dropout(p=0.0, inplace=False)
                  (proj): Linear(in_features=192, out_features=192, bias=True)
                  (proj_drop): Dropout(p=0.0, inplace=False)
                  (softmax): Softmax(dim=-1)
                )
                (drop_path): DropPath(drop_prob=0.055)
                (norm2): LayerNorm((192,), eps=1e-05, elementwise_affine=True)
                (mlp): Mlp(
                  (fc1): Linear(in_features=192, out_features=768, bias=True)
                  (act): GELU(approximate='none')
                  (fc2): Linear(in_features=768, out_features=192, bias=True)
                  (drop): Dropout(p=0.0, inplace=False)
                )
              )
            )
            (downsample): PatchMerging(
              (reduction): Linear(in_features=768, out_features=384, bias=False)
              (norm): LayerNorm((768,), eps=1e-05, elementwise_affine=True)
            )
          )
          (2): BasicLayer(
            (blocks): ModuleList(
              (0): SwinTransformerBlock(
                (norm1): LayerNorm((384,), eps=1e-05, elementwise_affine=True)
                (attn): WindowAttention(
                  (qkv): Linear(in_features=384, out_features=1152, bias=True)
                  (attn_drop): Dropout(p=0.0, inplace=False)
                  (proj): Linear(in_features=384, out_features=384, bias=True)
                  (proj_drop): Dropout(p=0.0, inplace=False)
                  (softmax): Softmax(dim=-1)
                )
                (drop_path): DropPath(drop_prob=0.073)
                (norm2): LayerNorm((384,), eps=1e-05, elementwise_affine=True)
                (mlp): Mlp(
                  (fc1): Linear(in_features=384, out_features=1536, bias=True)
                  (act): GELU(approximate='none')
                  (fc2): Linear(in_features=1536, out_features=384, bias=True)
                  (drop): Dropout(p=0.0, inplace=False)
                )
              )
              (1): SwinTransformerBlock(
                (norm1): LayerNorm((384,), eps=1e-05, elementwise_affine=True)
                (attn): WindowAttention(
                  (qkv): Linear(in_features=384, out_features=1152, bias=True)
                  (attn_drop): Dropout(p=0.0, inplace=False)
                  (proj): Linear(in_features=384, out_features=384, bias=True)
                  (proj_drop): Dropout(p=0.0, inplace=False)
                  (softmax): Softmax(dim=-1)
                )
                (drop_path): DropPath(drop_prob=0.091)
                (norm2): LayerNorm((384,), eps=1e-05, elementwise_affine=True)
                (mlp): Mlp(
                  (fc1): Linear(in_features=384, out_features=1536, bias=True)
                  (act): GELU(approximate='none')
                  (fc2): Linear(in_features=1536, out_features=384, bias=True)
                  (drop): Dropout(p=0.0, inplace=False)
                )
              )
              (2): SwinTransformerBlock(
                (norm1): LayerNorm((384,), eps=1e-05, elementwise_affine=True)
                (attn): WindowAttention(
                  (qkv): Linear(in_features=384, out_features=1152, bias=True)
                  (attn_drop): Dropout(p=0.0, inplace=False)
                  (proj): Linear(in_features=384, out_features=384, bias=True)
                  (proj_drop): Dropout(p=0.0, inplace=False)
                  (softmax): Softmax(dim=-1)
                )
                (drop_path): DropPath(drop_prob=0.109)
                (norm2): LayerNorm((384,), eps=1e-05, elementwise_affine=True)
                (mlp): Mlp(
                  (fc1): Linear(in_features=384, out_features=1536, bias=True)
                  (act): GELU(approximate='none')
                  (fc2): Linear(in_features=1536, out_features=384, bias=True)
                  (drop): Dropout(p=0.0, inplace=False)
                )
              )
              (3): SwinTransformerBlock(
                (norm1): LayerNorm((384,), eps=1e-05, elementwise_affine=True)
                (attn): WindowAttention(
                  (qkv): Linear(in_features=384, out_features=1152, bias=True)
                  (attn_drop): Dropout(p=0.0, inplace=False)
                  (proj): Linear(in_features=384, out_features=384, bias=True)
                  (proj_drop): Dropout(p=0.0, inplace=False)
                  (softmax): Softmax(dim=-1)
                )
                (drop_path): DropPath(drop_prob=0.127)
                (norm2): LayerNorm((384,), eps=1e-05, elementwise_affine=True)
                (mlp): Mlp(
                  (fc1): Linear(in_features=384, out_features=1536, bias=True)
                  (act): GELU(approximate='none')
                  (fc2): Linear(in_features=1536, out_features=384, bias=True)
                  (drop): Dropout(p=0.0, inplace=False)
                )
              )
              (4): SwinTransformerBlock(
                (norm1): LayerNorm((384,), eps=1e-05, elementwise_affine=True)
                (attn): WindowAttention(
                  (qkv): Linear(in_features=384, out_features=1152, bias=True)
                  (attn_drop): Dropout(p=0.0, inplace=False)
                  (proj): Linear(in_features=384, out_features=384, bias=True)
                  (proj_drop): Dropout(p=0.0, inplace=False)
                  (softmax): Softmax(dim=-1)
                )
                (drop_path): DropPath(drop_prob=0.145)
                (norm2): LayerNorm((384,), eps=1e-05, elementwise_affine=True)
                (mlp): Mlp(
                  (fc1): Linear(in_features=384, out_features=1536, bias=True)
                  (act): GELU(approximate='none')
                  (fc2): Linear(in_features=1536, out_features=384, bias=True)
                  (drop): Dropout(p=0.0, inplace=False)
                )
              )
              (5): SwinTransformerBlock(
                (norm1): LayerNorm((384,), eps=1e-05, elementwise_affine=True)
                (attn): WindowAttention(
                  (qkv): Linear(in_features=384, out_features=1152, bias=True)
                  (attn_drop): Dropout(p=0.0, inplace=False)
                  (proj): Linear(in_features=384, out_features=384, bias=True)
                  (proj_drop): Dropout(p=0.0, inplace=False)
                  (softmax): Softmax(dim=-1)
                )
                (drop_path): DropPath(drop_prob=0.164)
                (norm2): LayerNorm((384,), eps=1e-05, elementwise_affine=True)
                (mlp): Mlp(
                  (fc1): Linear(in_features=384, out_features=1536, bias=True)
                  (act): GELU(approximate='none')
                  (fc2): Linear(in_features=1536, out_features=384, bias=True)
                  (drop): Dropout(p=0.0, inplace=False)
                )
              )
            )
            (downsample): PatchMerging(
              (reduction): Linear(in_features=1536, out_features=768, bias=False)
              (norm): LayerNorm((1536,), eps=1e-05, elementwise_affine=True)
            )
          )
          (3): BasicLayer(
            (blocks): ModuleList(
              (0): SwinTransformerBlock(
                (norm1): LayerNorm((768,), eps=1e-05, elementwise_affine=True)
                (attn): WindowAttention(
                  (qkv): Linear(in_features=768, out_features=2304, bias=True)
                  (attn_drop): Dropout(p=0.0, inplace=False)
                  (proj): Linear(in_features=768, out_features=768, bias=True)
                  (proj_drop): Dropout(p=0.0, inplace=False)
                  (softmax): Softmax(dim=-1)
                )
                (drop_path): DropPath(drop_prob=0.182)
                (norm2): LayerNorm((768,), eps=1e-05, elementwise_affine=True)
                (mlp): Mlp(
                  (fc1): Linear(in_features=768, out_features=3072, bias=True)
                  (act): GELU(approximate='none')
                  (fc2): Linear(in_features=3072, out_features=768, bias=True)
                  (drop): Dropout(p=0.0, inplace=False)
                )
              )
              (1): SwinTransformerBlock(
                (norm1): LayerNorm((768,), eps=1e-05, elementwise_affine=True)
                (attn): WindowAttention(
                  (qkv): Linear(in_features=768, out_features=2304, bias=True)
                  (attn_drop): Dropout(p=0.0, inplace=False)
                  (proj): Linear(in_features=768, out_features=768, bias=True)
                  (proj_drop): Dropout(p=0.0, inplace=False)
                  (softmax): Softmax(dim=-1)
                )
                (drop_path): DropPath(drop_prob=0.200)
                (norm2): LayerNorm((768,), eps=1e-05, elementwise_affine=True)
                (mlp): Mlp(
                  (fc1): Linear(in_features=768, out_features=3072, bias=True)
                  (act): GELU(approximate='none')
                  (fc2): Linear(in_features=3072, out_features=768, bias=True)
                  (drop): Dropout(p=0.0, inplace=False)
                )
              )
            )
          )
        )
        (norm1): LayerNorm((192,), eps=1e-05, elementwise_affine=True)
        (norm2): LayerNorm((384,), eps=1e-05, elementwise_affine=True)
        (norm3): LayerNorm((768,), eps=1e-05, elementwise_affine=True)
      )
    )
    (1): PositionEmbeddingSine()
  )
)
2025-02-13 13:56:43.116 | INFO     | __main__:main:169 - Training log of QAHOI
2025-02-13 13:56:43.598 | INFO     | __main__:main:170 - 
----------------------  ------------------------------------------------------------------------------------------
sys.platform            win32
Python                  3.8.20 (default, Oct  3 2024, 15:19:54) [MSC v.1929 64 bit (AMD64)]
…
